webApp/outputs/best_model.pt (torch, 55223 bytes, 7 tensors)

net.0.weight f4 [128, 32]
000000 b9 4c a7 3d 29 2c fd 3c 37 22 16 bc 6c 2b e6 3d
       0.081689306 0.030904846 -0.009163431 0.11238751
000010 4a 8e 56 bd 2a 03 61 3d 5f 79 3a be f1 3c b5 3d
       -0.05238179 0.054934658 -0.18210362 0.08849514
000020 d1 f7 07 3e 65 44 4a 3d 19 58 23 3e 81 82 43 3d
       0.13278128 0.049381632 0.15951575 0.04773188
000030 f5 c6 bb 3d c3 fa cb 3d d4 e9 0c 3d f3 f3 00 bc
       0.091688074 0.099599384 0.034402683 -0.007870662
000040 cc b4 18 3e 0b 02 27 3d 3a 4a de bd 7a fe 03 3e
       0.14912719 0.040773433 -0.10854001 0.12890044
000050 ab 7c 85 bd 0f 14 d8 3d a9 1a a7 bd 83 bf 16 3e
       -0.06517919 0.10550701 -0.08159382 0.14721493
000060 c9 63 30 be 4c 6d 25 be 0a eb 86 be 2c 7d 8e be
       -0.17225565 -0.16154975 -0.26351196 -0.27829874
000070 eb 9c a3 3d 14 ab 7f be bd 13 ef 3d 4c d0 8c bd
       0.07988914 -0.24967605 0.11673687 -0.06875667
000080 e8 16 60 3d 5e 7e a3 bc 67 62 e2 bd ba 41 2c 3d
       0.054709345 -0.019957718 -0.11053925 0.04205487
000090 17 d0 eb bd 23 88 42 3e d3 33 91 3d ee 0f b6 bd
       -0.11514299 0.18997245 0.07089963 -0.08889757
0000a0 c8 f1 88 bc fe 46 92 bd 0c cb a0 bc 0c da c5 3c
       -0.016716853 -0.07142447 -0.01962807 0.024151824
0000b0 52 65 3c bd 8d 19 15 3e 1f 5d 6b 3e 47 f1 02 3e
       -0.045995064 0.14560528 0.22984742 0.12787353
0000c0 12 9c f3 3c c6 59 79 bd 04 93 ba be d3 9f be 3c
       0.029737506 -0.06087663 -0.3644029 0.02326957
0000d0 a4 d2 2b be d0 97 6a 3e e2 15 3f 3e 55 64 2a bc
       -0.16779572 0.22909474 0.18660691 -0.010399898
0000e0 9b 62 b8 3d c4 d0 0d 3e fa 8b 8a 3d 71 70 51 be
       0.090031825 0.13849169 0.0676498 -0.20453049
0000f0 ee dc 09 bd 06 f3 44 be c0 0a e7 3d ad 89 04 be
       -0.03365796 -0.19233331 0.11281347 -0.12943144
000100 71 68 c5 3c 77 01 2c bc 42 c8 d6 3d 57 c2 22 bd
       0.024097653 -0.010498396 0.10487415 -0.03973612
000110 bf c4 26 be 77 0d e7 bd d2 a7 56 3e 31 13 01 3d
       -0.1628599 -0.11281865 0.20962456 0.031512443
000120 b3 11 17 3e a4 97 ee bd 14 f6 88 be 1c 96 57 bd
       0.14752845 -0.11650017 -0.26750243 -0.05263339
000130 2e 65 d0 be f9 85 d8 3d 12 d4 84 3e 1c 50 6c 3e
       -0.40702194 0.10572428 0.25943047 0.23077434
000140 c4 f4 e9 bd 2d d9 cc 3c c1 7f 72 3d 76 ae 97 bb
       -0.114236385 0.025005901 0.059203867 -0.0046289517
000150 29 d5 8b bc d5 c4 11 bd 35 0c 87 3e 58 d1 df bd
       -0.017069416 -0.035588104 0.263765 -0.10928601
000160 2b a4 3f bc a3 db 95 3d 74 12 8a 3d db 86 9c bd
       -0.011696856 0.07317283 0.06741801 -0.07642909
000170 5e 91 d5 3d 33 05 17 3d a1 30 6c bd 10 99 2e be
       0.10428117 0.036870193 -0.057663564 -0.17050576
000180 f3 ce 44 3e 79 68 1c bd 6e 06 d0 bd c2 28 9c bd
       0.1921957 -0.03818557 -0.10157476 -0.076249614
000190 bf 10 ee bd 31 1b 1e 3d 43 3f a5 bc d8 3d c3 3b
       -0.11624288 0.03860015 -0.020171767 0.0059583
0001a0 ad 55 e9 3d 97 91 70 3d 04 bf af bd e0 42 0b bd
       0.113932945 0.058732595 -0.08581355 -0.033999324
0001b0 6d 5b 95 be 3a 23 08 be 6e b7 92 3d e9 22 24 3e
       -0.29171315 -0.13294688 0.07163893 0.16028942
0001c0 97 e4 c9 3d c0 d1 5f 3e 0e db de bd 7e 54 0e bb
       0.09858053 0.21857357 -0.10881625 -0.0021717842
0001d0 24 e9 6a 3c 8a e7 1f be 2a 96 18 be 07 55 27 3b
       0.014337812 -0.15615669 -0.14901033 0.0025532858
0001e0 4b 02 ac 3d 56 13 6d bd e9 58 76 bd 88 29 6b be
       0.08398875 -0.05787977 -0.060143385 -0.22965062
0001f0 34 42 9b 3c 72 a2 e6 bd b3 8f ed bd 32 ce 7c be
       0.018952467 -0.11261453 -0.11599674 -0.24688032
000200 72 95 94 bd a4 d3 be bd 3d 6d 12 3e 60 20 92 3b
       -0.07255067 -0.09317711 0.14299484 0.004459426
000210 5c c2 14 bd 9d bf 2e 3d 4c 13 1d bd 4a b7 8d bd
       -0.036318168 0.042663205 -0.03834848 -0.06919725
000220 ef 58 3d be ad ed cf be 16 21 56 3e 32 27 86 bd
       -0.18490957 -0.4061102 0.20911059 -0.06550445
000230 27 1f 57 3d 5e df a9 bd 13 7f a1 3e 44 3d 52 be
       0.052519944 -0.08294557 0.31542262 -0.20531183
000240 d3 cc d5 bd cd f5 e2 be f6 a4 9e 3d 8b b5 1a 3e
       -0.10439458 -0.44328156 0.077463076 0.15108316
000250 bb 4f ee 3c 26 4d 39 be f6 4e 10 3e 3f e3 06 bd
       0.029090753 -0.18095836 0.14092621 -0.032931563
000260 a8 37 ce bd ce 05 09 bf c8 7c 3d 3d 4e 87 aa 3c
       -0.10069209 -0.5352448 0.04626158 0.020816471
000270 79 62 e9 3d 1f 68 a5 3c a9 55 15 3e 4f 1b a7 bc
       0.11395735 0.02019125 0.14583458 -0.020398764
000280 69 ab 46 3e 64 57 f3 3d fe 70 22 bc 2d bd 30 be
       0.19401325 0.11881903 -0.009914635 -0.17259665
000290 40 73 31 3e ad ac c9 3d 56 02 0a be 1c b4 1b 3e
       0.1732912 0.098473884 -0.13477454 0.15205425
0002a0 75 68 ef 3d 8c 1b 8d ba 05 b1 85 bd 9e a4 92 bd
       0.116898455 -0.0010765656 -0.065279044 -0.071603045
0002b0 1c 58 c2 3d 06 1b 89 3d 10 dd 38 be c2 7f 65 bd
       0.09489462 0.066946074 -0.18053079 -0.056030042
0002c0 73 63 30 be ba 26 97 3d 02 77 db 3d d4 c0 fb bd
       -0.17225437 0.073804334 0.10716058 -0.122926384
0002d0 66 bd 86 bd e1 25 24 3e fd 59 ce bd 58 26 2c be
       -0.06579094 0.16030075 -0.10075758 -0.16811502
0002e0 04 60 f0 3c 19 34 7f 3d 6e 24 99 3c 1a b6 7e 3d
       0.029342659 0.062305544 0.018694129 0.062185384
0002f0 ea 94 17 be 52 af 08 3e c6 56 a6 bd d3 76 23 be
       -0.148029 0.1334813 -0.081220195 -0.15963297
000300 34 15 4d 3e 11 78 2c 3e 63 18 9b bd 30 7d 40 bc
       0.2002762 0.16842677 -0.07573011 -0.011748597
000310 41 1e a0 3d 22 2b 04 3c 85 be 21 bd 92 e6 26 3c
       0.078182705 0.008066924 -0.039488334 0.010186808
000320 b3 bc d7 bd f1 1f db 3c a2 27 92 3d d7 f8 17 3d
       -0.105340384 0.02674863 0.071364656 0.037102547
000330 32 8e 32 3d f1 6e 80 bd de bf 73 be 77 05 83 be
       0.04359264 -0.062711604 -0.2380366 -0.25590107
000340 a3 a3 97 3d 90 10 5f 3e 6c 67 37 3d b9 3f b3 3d
       0.07404258 0.21783662 0.044776365 0.087523885
000350 e7 13 4a be 81 89 97 bd 30 3c 3c bd 32 7c dd 3b
       -0.19734155 -0.07399274 -0.045955837 0.00675919
000360 7a 8c 14 3e 8c be aa bd 81 87 8f 3d 4f b7 fa bd
       0.14506713 -0.08337125 0.07008267 -0.122419946
000370 7e af 76 be d2 d9 ed 3d 56 f1 63 bd 9e ef d0 bd
       -0.24090382 0.116138116 -0.055650078 -0.10201953
000380 d8 b2 20 bd a6 e5 3b bc 7e 6c 81 3d 4e d2 9c 3c
       -0.03923306 -0.011468327 0.06319521 0.01914325
000390 1c d2 38 be 60 60 20 be c8 70 b9 3b 4d ce 81 3d
       -0.180489 -0.15661764 0.0056591965 0.06338177
0003a0 18 5c 8e 3e df 11 52 3e 0a 2f 11 3e c2 c9 8f 3d
       0.27804637 0.2051463 0.141781 0.07020904
0003b0 29 ef 5b bd 92 3f 08 be b6 72 83 bd d7 12 46 be
       -0.053694878 -0.133055 -0.06418364 -0.19343124
0003c0 6a 1b 12 3e f4 ab 45 3d 96 de dd bd 48 04 b5 bc
       0.1426827 0.04825969 -0.108334705 -0.022096768
0003d0 c1 d3 1f bd 6c bf 09 be 93 d9 ee bd df 07 0b 3e
       -0.039020304 -0.13451928 -0.11662593 0.13577221
0003e0 f4 84 93 3b 9b 91 79 bc 89 c8 84 be 55 e6 15 be
       0.004501933 -0.015232469 -0.25934246 -0.14638646
0003f0 c5 5b c6 bd e2 2e bb bd 3e cd 3b be ad f9 84 be
       -0.096854724 -0.091398016 -0.18340012 -0.25971738

net.0.bias f4 [128]
000000 0c 3f 47 bd 3a 6e c1 3d eb bc 58 3d b5 e5 83 3d
       -0.04864411 0.09444852 0.05291454 0.064402975
000010 56 b8 ca bd c6 7e 4e 3c e9 4f 1b be 13 c3 03 bd
       -0.098984405 0.012603467 -0.15167202 -0.03216846
000020 3e 2a 43 be ef df 63 be 60 47 70 be 60 b0 7e be
       -0.19059083 -0.22253393 -0.23464727 -0.24871969
000030 54 07 fc 3c 3b cd 0b be 5e 06 ad bd 4c 32 e0 3d
       0.030765213 -0.13652508 -0.0844848 0.10947093
000040 47 4d ba bc a9 28 19 39 4e f4 10 3d b2 59 d3 bc
       -0.022741927 0.00014606364 0.035389237 -0.025799606
000050 16 cf 5b bd 12 c9 1e be ee 7e 1d be f1 b5 29 be
       -0.05366429 -0.1550639 -0.15380451 -0.16573311
000060 28 c4 cb bc 32 ac 9a bd 99 cd 61 be 40 8c 17 ba
       -0.024873808 -0.07552375 -0.22051086 -0.0005781092
000070 8f 48 fa bc 39 1e f6 bd e5 ab cb bd 4b a6 14 be
       -0.030552177 -0.12017483 -0.09944896 -0.1451656
000080 b3 0a 8c be df bf 11 be 99 e5 64 be c0 6e 85 be
       -0.27351913 -0.1423335 -0.2235321 -0.26061058
000090 99 10 36 be dc aa f8 3c 84 77 73 be 65 51 92 bd
       -0.17779769 0.03035491 -0.2377606 -0.07144431
0000a0 86 f3 62 be f7 1a ef bd df a4 e1 bd fe cf ab be
       -0.2216321 -0.11675065 -0.11017775 -0.33557123
0000b0 df 8b a9 3c b1 a2 4a be 9a d4 bb 3d f5 0f 8d bd
       0.020696579 -0.19788624 0.0917141 -0.06887809
0000c0 f9 33 e0 bd 88 25 38 be 1a 4c 1e bd 61 ff 07 3e
       -0.10947413 -0.17983067 -0.038646795 0.13281013
0000d0 54 b3 43 be 55 f7 1f bd bd b0 42 3e 5a 65 64 bd
       -0.19111377 -0.039054234 0.19012733 -0.05576072
0000e0 2e ad a9 be 3a c9 1e be 38 c8 d8 bd 02 76 04 be
       -0.33139938 -0.1550645 -0.10585064 -0.12935641
0000f0 8f 70 2a bd ef 4b 11 be 1b 6a d3 3c 23 11 db 3c
       -0.04161125 -0.14189123 0.025807431 0.02674157
000100 c6 7c cd bc 45 02 71 bd 8b 97 82 bd 5b 6d 8e be
       -0.02508391 -0.058840055 -0.06376561 -0.27817807
000110 5e 9d 5e bd 7b 1d a3 bd 5f 42 69 bd 0e da 4c be
       -0.054349296 -0.07964607 -0.056948062 -0.20005056
000120 79 8a fe 3d 3a 71 6f be 11 2a 44 be 05 9c 06 be
       0.12428755 -0.23383036 -0.19156672 -0.13145454
000130 45 5c 62 be 70 00 46 be 68 84 ad be 87 09 bb bd
       -0.2210551 -0.19336104 -0.3389008 -0.091326766
000140 a1 c2 d3 bc 2b dc 25 bd eb dc 43 be a8 8e 90 bb
       -0.025849642 -0.04049317 -0.19127242 -0.004411537
000150 bb ea 00 3c 2c 59 bf 3d 0c 4c 0b 3e 9e b6 bd be
       0.007868464 0.0934318 0.13603228 -0.37053388
000160 23 d3 a9 be 1f 0c 00 3e d1 77 f0 3d 7b ab e5 bd
       -0.33168897 0.12504624 0.11741603 -0.11214348
000170 c0 35 93 bd 9b b6 45 be 11 ad d2 3c c8 7c 74 3c
       -0.071879864 -0.1930794 0.02571729 0.014922328
000180 c2 88 2e 3d 51 3f e9 3d bc fa 18 be 39 3c 0c 3d
       0.04261089 0.1138903 -0.14939398 0.03423712
000190 d5 94 5d be c8 ad 8d 3d 95 45 72 be 70 cf 6b be
       -0.21638806 0.06917912 -0.23659356 -0.2302835
0001a0 b0 2e 7b be 1a ae 62 3d 2d db db bd 67 b7 9b bd
       -0.24529529 0.055341817 -0.10735164 -0.076033406
0001b0 1b ae 9f bd f3 19 29 be 20 93 9b be 70 81 72 bd
       -0.0779688 -0.16513805 -0.30385685 -0.059205472
0001c0 20 e6 8e be 0a 65 ba bd 13 c5 1f be 99 3f a2 be
       -0.27909946 -0.09101303 -0.15602522 -0.31689146
0001d0 29 15 b3 3c 52 7a 5e bb e3 8b 8b 3d 65 31 84 3c
       0.021860676 -0.003394742 0.06813791 0.016136834
0001e0 71 55 b6 3d 35 0d 40 be 07 b3 05 bd 60 16 8a b8
       0.089030154 -0.18755038 -0.032641437 -6.5845205e-05
0001f0 62 fa 9b be 30 96 50 be ae 50 be 3d 06 63 72 bd
       -0.30464464 -0.20369792 0.09292732 -0.059176467

net.3.weight f4 [64, 128]
000000 c1 41 40 be 9e 50 0e be 7b f8 58 bd b9 29 03 bc
       -0.18775083 -0.1389794 -0.052971344 -0.008005553
000010 1e f5 f3 3c 0c 8e f2 bd 84 25 57 3d 34 6d 1c be
       0.029779967 -0.118434995 0.052526012 -0.15276033
000020 3c f6 a9 bd 49 6a d5 3d 09 5c 35 3d df 36 74 3d
       -0.082989186 0.10420663 0.044277225 0.05962264
000030 f1 9f 92 bd 1c f8 16 3d aa de 9e 3c ce 82 8f be
       -0.07159413 0.03685771 0.019393284 -0.28029484
000040 9d ce a3 3d c8 ff 27 3c 60 5c c2 36 39 ed 58 3d
       0.07998393 0.010253854 5.7924044e-06 0.05296061
000050 7c 99 6f 3d 17 5a 2e 3e f6 68 da 3d 0e 3e b0 bc
       0.058495983 0.17026554 0.10664551 -0.021513965
000060 60 31 cf 3d 26 e0 84 bc a1 77 d1 3d 34 66 f2 3d
       0.101168394 -0.016220164 0.102278955 0.118359
000070 3c a9 64 3c d4 b0 9b 3d 27 b6 8e 3d a0 5c f1 bc
       0.013956364 0.07602087 0.069683366 -0.029463112
000080 51 0e 06 bc 55 d6 f7 3d ba 98 11 3e e3 4a fd 3c
       -0.008182124 0.121014275 0.14218417 0.030919498
000090 a9 36 ef 3c 17 6c 48 be 1d c2 01 be 37 68 e1 3c
       0.029200869 -0.19572483 -0.12671705 0.027515514
0000a0 fd 93 f9 3c 32 cb b4 3d e9 43 8d bc 87 ab c2 bc
       0.030466074 0.08827819 -0.017244296 -0.023763431
0000b0 03 6e 2e 3d f6 48 92 3b 6a 34 07 3e 86 a5 4d 3d
       0.042585384 0.004464264 0.13203588 0.050206684
0000c0 1a ec 0c be ac d4 14 be 89 25 b9 bd fc 1b 72 3d
       -0.1376194 -0.14534253 -0.090403624 0.05910872
0000d0 d5 70 3b 3e 41 0b 07 be f2 c6 44 bd 8b 03 66 3d
       0.18304761 -0.13187887 -0.04804129 0.056155723
0000e0 82 ea db bc 74 e2 b2 be d7 0f 39 3e ac fe 13 be
       -0.02684522 -0.34938395 0.18072449 -0.14452618
0000f0 56 f7 18 bd 8a eb a5 3c 88 c9 c5 bd c4 99 c7 3d
       -0.037345253 0.020253915 -0.0965758 0.09746125
000100 5f 52 a5 3a 43 39 2e 3d 98 57 d4 bd 9a 6b df ba
       0.001261305 0.042535078 -0.1036827 -0.0017045618
000110 4b 45 15 be 6a 94 fe 3d 61 52 dd bc 16 5d 02 be
       -0.14577214 0.124306515 -0.02701682 -0.12730822
000120 6c 49 9f 3c ff 75 df bd a0 b3 35 be 3b a1 a9 3b
       0.01944419 -0.10911178 -0.17744303 0.005176691
000130 38 a9 c0 3d 1f 91 4e 3d 2c f1 78 3a 1d a5 a0 bd
       0.09407276 0.050431367 0.00094963866 -0.07843993
000140 ec 10 ae bd 51 42 e3 3d 39 b7 ac 3d c6 19 18 bc
       -0.08499321 0.11096633 0.084333844 -0.009283489
000150 98 8c a1 3b c1 b3 cd 3d 4c bf 06 be 8a 55 19 3e
       0.00493009 0.10044051 -0.13158911 0.14974037
000160 e7 c5 dc bd bf e9 7d 3d b4 53 2c bd 29 9f 8c be
       -0.107799344 0.061990496 -0.042072013 -0.2746518
000170 91 ff 21 be 8d 23 f6 3d 80 97 cb 3d 22 47 64 3c
       -0.15820147 0.120184995 0.09941006 0.013932975
000180 24 e1 d4 3d 14 d5 fa 3d f3 ab 4b bc 0d 21 a6 3c
       0.10394505 0.12247673 -0.012431133 0.020279432
000190 ee fa 8c bd 80 da 5d 3d 96 08 a3 bd 42 25 09 bd
       -0.068837985 0.054163456 -0.07960622 -0.033482797
0001a0 6e 2a fb 3d b5 94 25 3d 3c 3d a5 bd 8b 0a fc bc
       0.12263952 0.04042502 -0.0806832 -0.030766746
0001b0 2d 7a 88 be 32 ab 2b 3d 7b e9 03 3e 06 0a 29 bc
       -0.26655713 0.04191131 0.12882034 -0.010317331
0001c0 ce 7f 36 be 9e 7b 27 be 1c cc 3c bc 48 11 00 3e
       -0.17822191 -0.1635575 -0.011523273 0.12506592
0001d0 56 8b 7b bd c6 47 70 3e c7 c9 78 3d 95 49 3e bd
       -0.061412178 0.2346488 0.060739305 -0.046456892
0001e0 dd 71 d4 3d d1 1b 76 3e 4e 95 08 3d ac fc 27 3c
       0.1037328 0.24034049 0.033345513 0.010253113
0001f0 24 30 cd 3d e7 61 e4 bd bb 17 85 bd f5 56 17 bd
       0.10018948 -0.11151486 -0.06498667 -0.036948163
000200 39 02 f2 3c d2 21 c0 3d ee f6 a1 bc 93 e0 0d be
       0.029542075 0.09381451 -0.019771066 -0.138552
000210 f1 18 fb 3d ea 34 ca 3d 7d 2b eb bd bb be 3f bd
       0.122606166 0.09873374 -0.11482904 -0.046812754
000220 8c ed 7e bd 28 c9 44 bd f6 60 97 3d 10 f4 b3 3c
       -0.06223826 -0.0480434 0.07391541 0.021966964
000230 f1 51 61 bd a2 25 4a 3d 53 31 96 3d 96 af 43 bd
       -0.055009786 0.049352296 0.073336266 -0.047774874
000240 b5 6d f2 3d 46 86 42 bc 90 42 35 3b 38 c3 b1 3b
       0.11837331 -0.011872834 0.0027658083 0.005424883
000250 72 6b 17 bd fd 90 e5 3d ce 8d 80 3c 25 5c 21 3e
       -0.036967702 0.11209295 0.015692618 0.15757807
000260 b6 39 86 bc 58 4b 71 bd 22 b2 28 bd fe 65 b3 bd
       -0.01638494 -0.058909744 -0.041185506 -0.08759688
000270 8f 27 c7 bd df b2 15 3d 32 a7 ce 3d de fa db 3d
       -0.09724342 0.036547538 0.10090484 0.107412085
000280 3b 6f 9d 3d b2 8d 8c be 0e 8d bf 3c da 7a 40 be
       0.07687231 -0.27451855 0.02338269 -0.18796864
000290 28 a9 af 3c 0b de 27 bb 23 d9 04 be 31 be 1a bd
       0.021442965 -0.0025614526 -0.12973456 -0.037779037
0002a0 24 a2 f1 bb 32 6a d7 bd 65 af 5f 3d 5f 0c 79 3e
       -0.007374065 -0.10518302 0.05461063 0.24321125
0002b0 de 6d 53 3e 7b 1f 33 3e 32 02 3f 3c 49 8d 8e 3d
       0.2064738 0.17492478 0.011658238 0.06960542
0002c0 8e 38 92 be 41 f3 9a be b3 a9 2b bd b0 53 06 3e
       -0.28558773 -0.30263713 -0.041909885 0.13117862
0002d0 57 9c a4 bd bc fb 3a 3d 94 3e 6f 3d 96 93 36 3d
       -0.08037632 0.04565023 0.05840929 0.044574343
0002e0 29 3f 79 bd ba c0 34 3d 92 8b 49 bd 0e 1a ca bd
       -0.06085125 0.04412911 -0.04920537 -0.09868251
0002f0 e4 57 90 3a 4d 8a 39 3c df 73 01 be 27 f8 b8 bd
       0.0011012522 0.011324477 -0.12641858 -0.09031706
000300 19 33 bd bb e0 96 69 bd 13 ea 64 bc f2 90 68 bc
       -0.0057739136 -0.05702865 -0.013971823 -0.014194714
000310 8c ff 3f be 7c 8c a7 bd 08 1f f9 bd a9 2b 7d 3d
       -0.18749827 -0.08181092 -0.12164122 0.061809216
000320 88 46 8d 3d 86 36 23 bd 72 4a 63 be 3b 90 24 3d
       0.068982184 -0.03984692 -0.22196367 0.04017661
000330 01 1d 21 be fe 0a ad 3b 31 9e f8 bc 10 c0 a3 3d
       -0.1573372 0.0052808514 -0.030348869 0.079956174
000340 18 d4 d9 3c 52 07 d0 bc 36 b5 9e bd ed 80 31 bd
       0.026590392 -0.025394116 -0.07749407 -0.043335844
000350 f5 ca 29 bc 76 7d 3f bd cf b3 02 3d 6d 6f bf 3d
       -0.01036333 -0.04675051 0.03190976 0.09347425
000360 ba b9 ab bc ed 7f b6 3d ae 0b e4 3c a6 8e 7c 3d
       -0.020962585 0.08911119 0.0278376 0.061659478
000370 fe 3f 23 3d a1 b5 97 3c a3 00 98 3d ab 5b 63 bc
       0.03985595 0.018519225 0.074219964 -0.013876836
000380 fc 23 d8 bc bd f1 59 3d c7 5a 84 be a7 09 1f 3d
       -0.026384346 0.053209055 -0.25850508 0.038827565
000390 ff 72 51 bd cb 28 0f be d3 fe b8 bd 31 ee 6a be
       -0.05113506 -0.13980405 -0.09032979 -0.22942425
0003a0 d5 1e c0 3d 04 2b 82 3d cb 09 fc 3b fc 8c 7d 3e
       0.09380881 0.06355861 0.007691597 0.24760813
0003b0 83 a1 1d bd bc e0 ba bd 90 5c 74 bc f9 7b 47 3d
       -0.038484108 -0.09124896 -0.014914647 0.048702214
0003c0 5b 77 7a be 68 fd 9d 3b d5 f0 5a bd 04 3a 3f be
       -0.24459593 0.004821468 -0.05345233 -0.18674475
0003d0 09 70 2d 3e c9 fc 62 3e 2e a5 20 3d 88 d8 b2 bd
       0.1693727 0.22166742 0.039220028 -0.08732706
0003e0 55 92 1e 3e 9b e5 30 3c ca 70 3f 3b 27 af eb bc
       0.15485509 0.01079693 0.0029211515 -0.028770043
0003f0 4d 07 a0 3c d9 25 81 be 83 ae 21 3c 9d 62 b9 3d
       0.019534731 -0.25224188 0.009868267 0.09052012

net.3.bias f4 [64]
000000 82 ca 68 3e 66 2e 1d 3e d1 ac 90 bc 34 33 e4 3d
       0.227335 0.15349731 -0.01766053 0.11142579
000010 58 55 0e bd f8 05 95 3d 1a f9 ae 3d 08 03 cb bc
       -0.03474936 0.07276529 0.08543606 -0.024781719
000020 28 35 14 3e 60 2f 16 3d 2e a2 46 3d 5c 38 ee 3b
       0.14473403 0.036666274 0.04849451 0.007269902
000030 d4 7a 14 3e 5c 27 18 3e ee 92 99 3d 85 68 d2 3d
       0.1449998 0.14858764 0.07498728 0.10273842
000040 4b 9f 69 3c 29 6a ff 3c 1f 4e c1 3d bc 94 0b 3e
       0.01425917 0.03117855 0.094387285 0.13630956
000050 85 26 a2 3d c2 99 00 3e 46 2f d0 3d e9 3b 0c 3e
       0.07917503 0.12558654 0.10165267 0.13694729
000060 26 6a ee 3c af 07 57 3d c1 8f a3 3d 2e 2e d1 bb
       0.02910335 0.052497562 0.07986403 -0.006383679
000070 32 da 07 3e 19 2d 58 bd f8 15 e8 3d 8b 34 12 bd
       0.13266829 -0.052777383 0.11332315 -0.03569464
000080 47 24 fe 3c a3 ab 2b bd d1 58 c6 3d 40 d6 49 bd
       0.031023158 -0.041911732 0.09684909 -0.04927659
000090 2f 75 b7 bd 57 77 f6 3d 89 83 86 bc 63 a9 90 bd
       -0.08957898 0.12034481 -0.016420143 -0.07063558
0000a0 46 4d 15 3e f1 c9 aa 3d 58 cb 27 3e 0a 7a a2 3d
       0.14580259 0.083392985 0.16386163 0.07933433
0000b0 a1 c1 0d be 1f 34 5b bd fe 7b cd 3c da 74 cd bd
       -0.13843395 -0.053516503 0.025083538 -0.10032053
0000c0 86 ee 35 3e 77 68 8e bd 3b 0f 85 3d 19 d5 51 bd
       0.1776677 -0.06953519 0.064970456 -0.051228616
0000d0 11 f4 c4 3d 95 85 e4 3d 6b 75 8e 3d fe 80 c5 3d
       0.096168645 0.11158291 0.069559895 0.09643744
0000e0 c2 67 07 3e 04 d1 2a 3d 02 a3 93 3d a5 b8 32 3d
       0.13223174 0.04170324 0.07208826 0.043633122
0000f0 08 f8 01 3e 8a 3e 27 3d 98 62 ce 3d 92 8e d1 3c
       0.12692273 0.040831126 0.10077399 0.025580678

net.6.weight f4 [1, 64]
000000 4a 70 9a be 77 78 d6 be 56 76 93 be df 8b 43 3e
       -0.30163795 -0.41888782 -0.2880122 0.19096325
000010 20 73 80 be cb 04 8e 3e 4b 16 e7 3d 31 40 3b be
       -0.25087833 0.27738032 0.11283549 -0.18286206
000020 15 60 c0 3e e7 d1 f3 be f3 be f3 bd 4f a4 8a be
       0.37573305 -0.4762108 -0.11901655 -0.27078483
000030 33 63 63 3e 2f 74 b0 be fd 7b 60 be aa 9b af 3e
       0.2220581 -0.3446364 -0.21922298 0.3429845
000040 31 40 81 be a1 b3 91 be 2d b1 83 be 5f ec 0f 3e
       -0.25244287 -0.28457358 -0.25721112 0.14055012
000050 19 2d 58 3e 01 16 82 be e2 a1 a6 be f9 43 58 3e
       0.21110953 -0.25407413 -0.32545382 0.2111968
000060 fe 01 99 be 37 61 6d 3e 55 00 71 3e cb 54 b1 3e
       -0.29884332 0.23181616 0.23535283 0.34635004
000070 35 28 3d 3e b9 e2 54 be b3 02 9e 3e c3 37 2d 3e
       0.18472369 -0.20789613 0.30861434 0.16915803
000080 07 50 2c 3e 0b c5 8e 3e f3 c7 5f 3e 10 32 87 be
       0.16827403 0.27884707 0.21853618 -0.26405382
000090 0d 56 e5 be 43 5f 86 3e df cb 96 be 2b 4b 76 be
       -0.44792214 0.26244554 -0.29452416 -0.24052112
0000a0 bc a0 b8 3e be 04 5f be 5b 8f 9e 3e ec d8 b2 be
       0.3606013 -0.21779153 0.30968747 -0.34931123
0000b0 a5 60 fa be 69 f8 b8 3e 58 3d 67 be 44 87 6f be
       -0.4890186 0.36127022 -0.22581995 -0.23391443
0000c0 c0 c5 8f 3e 9b ca dc be 7d 4e 89 be af be 9b be
       0.2808056 -0.43123326 -0.26817694 -0.30418918
0000d0 6a 74 57 be a9 3f 6c be 13 1b eb 3e 4c b2 a0 be
       -0.21040502 -0.2307116 0.45919093 -0.3138603
0000e0 47 03 f5 3d dd af 5b be 8d 99 81 be 5f 21 97 3e
       0.11963516 -0.21453805 -0.25312462 0.29517648
0000f0 ab a1 9a 3e ef 20 bc 3e 02 a8 83 3e 01 db d3 be
       0.30201468 0.36743876 0.25714117 -0.41378024

mean f4 [32]
000000 27 99 56 3f 01 73 d5 40 37 05 82 3f 36 2a 9a 3f
       0.8382744 6.6702886 1.0157841 1.2044132
000010 9f 63 5c 41 ac ba 04 3f 2d 2a 45 3e 90 b1 95 40
       13.774322 0.5184734 0.1925437 4.677925
000020 cb 8c 56 3f cd 9b d6 40 c7 fd 81 3f dc 3b 9a 3f
       0.83808583 6.7065187 1.0155572 1.2049518
000030 f1 6f 5c 41 e4 ac 04 3f bd 23 45 3e e7 73 95 40
       13.777329 0.5182631 0.19251914 4.670398
000040 63 32 97 3f 0d 7d 00 41 29 23 a3 3f ec ed 9d 3f
       1.1812252 8.03053 1.2745105 1.2338233
000050 a4 a2 84 41 71 8f 1e 3f 86 65 72 3e bf 08 e4 40
       16.579414 0.61937624 0.2367154 7.1260676
000060 24 b1 5d 3e bf 4e 65 3f 62 99 2b 3e e1 dd 9e 3c
       0.21649605 0.8957328 0.1675773 0.01939291
000070 e6 a6 e3 3f cf 3c 90 3d 33 db f0 3c 9b bb b0 3f
       1.7785308 0.07042848 0.029401397 1.3807253

std f4 [32]
000000 80 f6 91 3e 93 e4 93 3f 4b 0b 85 3e d6 d0 5e 3d
       0.28508377 1.155413 0.25985178 0.05439838
000010 dd 97 22 40 c0 37 e9 3d 63 fb 29 3d cc c2 df 3f
       2.540519 0.113875866 0.041499507 1.7481322
000020 87 9b 26 3e b3 dd 01 40 68 ef 26 3e 81 6f 48 3d
       0.16270266 2.0291564 0.16302264 0.048934463
000030 11 6c d4 3f 9c 44 ab 3d 1a e3 d6 3c 87 7d 67 3f
       1.6595479 0.083626956 0.026231337 0.90425915
000040 51 ea 94 3e d5 12 54 41 0e 0c c1 3e 97 bb 60 3d
       0.2908502 13.254598 0.3770451 0.0548664
000050 17 4f 13 40 50 bd dd 3d 18 e0 1d 3d 11 da de 3f
       2.3017023 0.10827124 0.03854379 1.7410299
000060 2a d4 cd 3d c4 06 95 40 11 89 01 3e a8 0f 24 3c
       0.10050233 4.657076 0.12649943 0.010013498
000070 45 b2 5e 3f b8 84 0f 3d 26 8a 65 3c ce 75 19 3f
       0.8699077 0.03503868 0.014009988 0.5994538
